PyHook/pipelines/ai_test/mosaic.pth (torch_old, 973145 bytes, 85 tensors)

conv1.weight f4 [32, 3, 9, 9]
000000 d2 ac ea 3d 55 3e 49 3d a7 01 40 3e fb b0 d0 3c
       0.11458744 0.04913171 0.1875063 0.025475016
000010 2e 0b 01 3c f1 b6 a8 bc 07 19 5f bd 15 57 95 bd
       0.007876201 -0.020595046 -0.054467227 -0.07292
000020 db b7 22 3d a4 b1 2d 3e fe 9d 3b bd 16 9a 71 3d
       0.03972612 0.16962296 -0.04580497 0.05898484
000030 0a 81 07 3e 92 31 42 3e f1 49 38 3e b1 10 92 3d
       0.13232818 0.18964222 0.17996956 0.0713209
000040 68 97 9f 3c 19 8f 31 bc cf b1 b0 3d 41 42 82 bd
       0.019481376 -0.01083734 0.08627664 -0.06360293
000050 02 f2 c7 bc 18 4f 3a 3e 16 a9 5e 3e dc 6c 51 3e
       -0.02440739 0.18194234 0.21744189 0.20451683
000060 bd 7a 0a 3e 97 3c 1a bd 53 d8 fe 3c 8a 82 06 bd
       0.13523383 -0.03765544 0.03110901 -0.032839336
000070 2f 29 d1 bc 41 2d 0a be 00 0b 3f be be 3f 4d bf
       -0.025532333 -0.13493825 -0.1865654 -0.8017539
000080 0a 3e b5 be e5 31 be 3c 7d 35 a9 bc af 8f f4 3c
       -0.35398895 0.023217151 -0.020655388 0.02985367
000090 c4 bc a0 bd a9 3e 2e 3e e1 28 88 bd 75 7b 3b bf
       -0.07848504 0.1701609 -0.06648422 -0.73235255
0000a0 4b 81 97 bf b7 ab bb bd df f2 4b bc 65 62 4a bd
       -1.1836332 -0.091636114 -0.012448042 -0.049410243
0000b0 a8 dc a7 bd f6 2c 86 bd e0 42 b6 3d 15 8c 30 bd
       -0.08196384 -0.06551544 0.08899474 -0.043102343
0000c0 0e 7b 2d bf 0d aa 04 be 2a 30 51 3f e1 d5 14 bc
       -0.6776589 -0.12955494 0.8171412 -0.009084196
0000d0 de b7 92 bd e0 9c d5 bd a1 20 68 bb fe bb c6 3d
       -0.07163976 -0.10430312 -0.003541984 0.097038254
0000e0 f2 78 2f bd b6 d5 0b bd 99 ce 37 3e fc 07 ad 3e
       -0.04283995 -0.034139358 0.17949905 0.33795154
0000f0 62 51 c1 3d 67 9e 00 3e cf 65 bb bd 73 d6 7d 3e
       0.09439351 0.12560426 -0.09150278 0.24788837
000100 d8 21 08 3d 0d 29 07 be 56 30 7e bd 46 32 dc bd
       0.0332354 -0.13199253 -0.062057815 -0.107517764
000110 4b 07 85 bd f8 50 3c 3d 6c 52 5a bd b1 2d 9b 3c
       -0.06495532 0.045975655 -0.05330126 0.018942686
000120 2a e1 64 3e 81 78 6e 3a db 38 60 bd 62 e4 ff bd
       0.22351518 0.0009096936 -0.05474172 -0.124947324
000130 12 7d 99 bc 2f fd 64 3d b4 86 19 bd 64 e7 4f bc
       -0.018736396 0.055905517 -0.03748198 -0.012689445
000140 a0 d4 00 3e de 37 d7 3c 4b 99 07 3d ff 4a 10 3d
       0.1258111 0.026271757 0.033105176 0.03522777
000150 e0 b5 58 bd df 54 b3 bd 5a 95 90 bd 4b 94 04 bd
       -0.052907825 -0.08756422 -0.070597365 -0.032367986
000160 4c c4 6c bd be f7 a5 3a 52 a0 52 ba 3d 8f 21 be
       -0.05780439 0.0012662334 -0.0008034754 -0.15777297
000170 b5 1a 9d 3d 0f 78 a6 3d 7c 86 9a 3d f9 f0 c9 3c
       0.076711096 0.08128368 0.07545182 0.024651038
000180 75 50 23 3d d8 32 5a bd 94 9c 53 bb af a6 5f bc
       0.03987165 -0.053271145 -0.0032289373 -0.01365058
000190 2d d6 83 bc 92 7a ae bd d2 84 5f 3d 22 26 99 bd
       -0.016093338 -0.08519472 0.054570027 -0.074779764
0001a0 00 6a 61 3c 43 14 07 3d 89 7f e1 bd a1 90 24 bd
       0.0137581825 0.032978307 -0.110106535 -0.04017699
0001b0 0c 80 64 bd da 4d 5f 3b 13 3f 67 be 98 a7 ee be
       -0.055786178 0.0034073503 -0.22582655 -0.4661224
0001c0 1b 8e 94 bf a6 7e 09 bf f6 fd c4 bc 74 38 a3 bd
       -1.1605867 -0.53708875 -0.02404688 -0.07969752
0001d0 e9 64 f9 bd 71 5a 3e be 21 aa ae 3d cb 60 39 be
       -0.1217745 -0.18589188 0.08528543 -0.1810333
0001e0 01 27 77 bf 75 4b b1 bf d2 56 19 be 4f 5c e8 bd
       -0.9654389 -1.3851153 -0.14974526 -0.113457315
0001f0 e5 94 23 be 3b 1c 18 be 42 36 22 be c6 69 b5 bd
       -0.15974768 -0.14854519 -0.1584101 -0.08858065
000200 2f aa 4a be e6 6f 2b bf e6 b2 24 be 23 05 4c 3f
       -0.19791482 -0.6696762 -0.1608387 0.7969534
000210 a2 7e 5c 3c a2 17 26 bd 1a 5b 16 bc 15 d9 2a bd
       0.013457926 -0.04054988 -0.009176994 -0.04171093
000220 d9 af 0d bd 43 79 da bd 58 6b 6b 3c 7f a3 1c 3d
       -0.03459153 -0.1066766 0.014368854 0.03824186
000230 d2 c8 65 3d 46 35 ad bd f5 46 e6 3c 3a 1d ef 3b
       0.05609972 -0.08457427 0.028110007 0.0072971852
000240 2e fd fd 3d 1f 7d 3b bc ec 3b db bd 4d 01 a1 3d
       0.12401806 -0.011443405 -0.107047886 0.07861576
000250 d9 ac 29 be 1e 17 70 be a6 b9 f3 3c 27 69 7e bd
       -0.16569842 -0.23446319 0.02975161 -0.062112
000260 a0 b0 94 3b e5 f3 0b bd b5 84 e2 bd 91 8b a0 bd
       0.004537657 -0.034168143 -0.11060468 -0.0783912
000270 34 a1 60 bd e8 44 4b 3d f6 e2 c6 3c ed 6b 84 3d
       -0.054841235 0.04962626 0.024278145 0.06465898
000280 95 da 3e bd e6 6b 0f 3e 4c 20 09 3e b7 6a 69 bd
       -0.046595175 0.14006004 0.13391227 -0.056986537
000290 76 77 9e bd b8 16 c0 bd c7 d8 29 be c2 63 03 bd
       -0.07737629 -0.09379333 -0.165866 -0.03207756
0002a0 3c c4 ab 3d 58 75 d1 bc 17 64 1b 3e cc 79 e6 3d
       0.08387038 -0.02556865 0.151749 0.112537
0002b0 51 3e a8 bd b2 79 ff bd 8b d3 00 be 50 92 3e 3b
       -0.08215011 -0.124743834 -0.12580697 0.0029078908
0002c0 a5 22 95 3d 06 d1 bb 3d 26 bb b8 3d 62 87 bd 3d
       0.072819985 0.091707274 0.09020071 0.09254338
0002d0 8c 4c 89 bc 6a 17 93 3c 11 e0 b6 3c c8 25 0e 3e
       -0.016760133 0.0179555 0.02232364 0.138816
0002e0 0d 10 3c 3d a7 8c a6 3d 15 c0 37 3e 28 da 06 3d
       0.045913745 0.08132296 0.17944367 0.032922894
0002f0 58 63 f1 3b 05 e0 05 3c 14 6e 61 3d bb 3d 0f 3e
       0.007366579 0.008171086 0.05503662 0.13988392
000300 02 c4 09 be d6 a2 89 be 29 14 0c be 3c 86 76 3d
       -0.13453677 -0.26882046 -0.13679565 0.06018661
000310 a7 37 cc bc ab d2 61 3d dc 3e 3c bc c4 1c a0 3e
       -0.02492888 0.05513255 -0.011489596 0.31271946
000320 54 9b 83 3e 2a 3d 57 3c 67 1a 50 be ac ea 5a 3e
       0.25704443 0.013137141 -0.20322572 0.21378583
000330 4f 56 7d 3d bb 11 39 bd 58 5f a3 bc c7 71 6b bd
       0.06184989 -0.045182925 -0.019942924 -0.057481553
000340 5a 23 1e 3e e6 e0 53 3e f4 08 88 3c 51 1e d5 3e
       0.15443173 0.2069126 0.016605832 0.41624692
000350 f4 7f 4b 3f e1 af 44 3d ce 56 85 3d 83 76 fd 3d
       0.79492116 0.048019294 0.06510697 0.1237612
000360 9a 0e 66 3c 1d 15 d4 3d b4 3c 1a 3e 26 fe 8f 3e
       0.014041567 0.103555895 0.15062219 0.28123587
000370 3d 84 65 3e d4 99 86 3d 3e 6d 9f 3c 61 e2 f4 3b
       0.22413726 0.06572309 0.01946127 0.0074732755
000380 3a af e2 3c 7f 2f 71 3d c2 fb 27 3e 16 2f 86 3d
       0.027671445 0.058883186 0.16404632 0.0655195
000390 b0 14 a4 3e 5d 75 b8 bd c1 6f f1 bd 69 c0 6c 3d
       0.32047033 -0.0900676 -0.117888935 0.057800684
0003a0 e9 eb c6 bc 6e 39 43 bd 10 1c 79 3d 42 29 47 bd
       -0.024282413 -0.04766219 0.060817778 -0.04862333
0003b0 19 6f 6d 3d 0e 54 86 3d 6b 4e 11 3c fb fe 08 3d
       0.05796728 0.06559001 0.008868794 0.033446293
0003c0 72 b6 15 3e 36 6b 30 bd 46 56 55 3d 30 96 4c 3d
       0.14620379 -0.043070994 0.05208423 0.049947917
0003d0 8f c6 5d 3d 36 9e 9a bc 55 80 fc 3c 5e 09 9e 3d
       0.05414444 -0.018874269 0.030822912 0.077166304
0003e0 14 c2 76 3d 53 d5 3e 3d d0 30 66 3d 96 f9 bd 3d
       0.06024368 0.04659016 0.056198895 0.0927612
0003f0 8d 57 8d 3d 88 8f 94 3d 26 cf a6 3d 19 63 a0 3c
       0.069014646 0.07253939 0.08144979 0.019578503

in1.weight f4 [32]
000000 e9 e0 db 3e 16 ac 02 3f 81 57 fe 3e 59 d0 0a 3f
       0.4294503 0.5104383 0.49676135 0.54224163
000010 8e 70 17 3f e8 64 19 3f d7 de 68 3e b5 a0 55 3e
       0.5915612 0.59919596 0.22741257 0.20862086
000020 65 06 81 3e 54 2b dd 3e 02 45 09 3f 82 3f 31 bc
       0.2520019 0.4319712 0.5362092 -0.010818364
000030 12 98 a1 3e f6 ed a8 3e e0 11 e6 3e 3a 30 c2 be
       0.31561333 0.3299405 0.44935513 -0.3792742
000040 ad 8c 90 3e 4f 35 8f 3e d4 ca 04 3f fd 76 73 37
       0.28232327 0.2797036 0.5187199 1.4511633e-05
000050 22 32 d2 bb f4 45 e1 3e 65 e5 c2 3e e6 92 70 3e
       -0.0064146677 0.43998682 0.3806564 0.23493537
000060 07 15 f5 3e e7 69 b6 3e c5 d1 c2 3e c9 7f 20 3f
       0.47867605 0.35627672 0.38050666 0.62694985
000070 a7 40 18 3b 6b ab 8d 3e eb 61 b8 3e 1d 47 3d 3e
       0.0023231895 0.27669844 0.36012205 0.18484159

in1.bias f4 [32]
000000 1a 33 71 be 88 f8 01 be d1 f3 9f 3e ab 5c 0b 3f
       -0.2355465 -0.12692463 0.31240705 0.54438275
000010 eb a7 4c be 72 47 1e 3f 49 21 8e 3e 78 2e 57 be
       -0.1998593 0.61827767 0.2775977 -0.2101382
000020 ae c3 0f 3d c1 b6 0f 40 90 5f b7 3e 59 2f 27 be
       0.035098724 2.2455294 0.35815096 -0.16326655
000030 ec 6c 74 bd 56 5b 05 40 d4 9d 41 3f 2e e1 d8 3e
       -0.05967419 2.0836997 0.7563145 0.42359298
000040 8b 97 91 3f 77 c6 b9 3f d8 44 ff 3e 0b 1b e9 bc
       1.1374372 1.4513692 0.4985721 -0.028455278
000050 23 e5 27 be 58 f8 f2 3e 4b ff 1d 3f 20 ea f3 3d
       -0.16396002 0.47455096 0.6171767 0.1190989
000060 7f e7 af 3d a4 83 56 3f 9a 87 85 be c3 37 19 be
       0.08589076 0.8379462 -0.26080018 -0.14962678
000070 78 ec ba bd 1d 72 05 be fe a0 ab 3f 08 3a 1a 3f
       -0.09127134 -0.13031812 1.3408506 0.602448

conv2.conv1.weight f4 [32, 32, 1, 1]
000000 c7 62 0b 3e f7 60 34 3d f5 83 8e bc 71 7a 6f be
       0.136119 0.044037785 -0.017396906 -0.23386551
000010 03 7d 92 b9 a0 d5 97 3e 2d 18 ac bd c4 4a 15 3e
       -0.0002794043 0.2965517 -0.08403049 0.14579302
000020 fd bc c7 3d 14 f4 6d 3e 00 5c 9b be ec 0c 42 bd
       0.097528435 0.2323764 -0.30343628 -0.047375605
000030 9f 4c c4 bd 73 52 bb 3c 12 d1 8b 3e 33 18 e4 be
       -0.09584927 0.022866463 0.27307945 -0.44549713
000040 74 ff 7f bd 78 fe 60 3e 69 10 f9 be ea ba 07 be
       -0.06249948 0.21972072 -0.48645332 -0.13254896
000050 e7 f8 7e 3d 93 77 98 be 05 ae 82 3d b2 9a c7 bd
       0.06224909 -0.29778728 0.06380848 -0.09746303
000060 7b bc 2c 3d 59 c8 8f be 5e 20 e7 3d 6a e0 9e be
       0.042171936 -0.2808254 0.112854704 -0.3103059
000070 98 dd 00 3e 3b 2e 5c be 56 31 8a be f5 d6 33 bf
       0.12584531 -0.2150201 -0.26990765 -0.70249873
000080 98 e9 8b be d9 87 b4 bb 4d a5 b6 3d 50 c4 d1 be
       -0.27326655 -0.0055093584 0.08918247 -0.40970087
000090 ac e8 9f 3e 70 f6 d3 3e 93 68 85 be 50 a8 b5 3e
       0.31232202 0.41398954 -0.26056346 0.35479975
0000a0 f6 34 b8 bd d9 08 1c 3e 21 7a 12 3e 36 e2 6d 3b
       -0.089944765 0.1523775 0.14304401 0.0036298162
0000b0 fa 5e 5e 3e e3 fb a6 be 69 92 80 3e 11 5b 17 3f
       0.21715918 -0.3261405 0.25111702 0.5912333
0000c0 37 2b 8a be d5 34 bc 3e 8f af 74 be 4f 20 28 be
       -0.26986095 0.36759058 -0.23895095 -0.16418575
0000d0 a3 07 44 be fb 80 04 bf 88 fb 29 be 71 70 9c 3d
       -0.19143538 -0.5175931 -0.16599858 0.07638634
0000e0 ec 6e e0 3d 8d 3d 96 bd a3 ad ca 3d 2b a6 7a bc
       0.10958657 -0.07335959 0.098964 -0.015298407
0000f0 09 16 27 bd 71 de 33 be 6d 4e 6a bd 04 e1 90 be
       -0.0407925 -0.17565323 -0.0572037 -0.28296673
000100 68 10 f0 3d 3f fd 64 be bf dc 99 bd ac 4b 06 be
       0.11721879 -0.2236223 -0.07512807 -0.13114804
000110 5e d1 84 bd e2 c5 89 3e 27 ba 1e bf eb cc e9 3e
       -0.06485246 0.26908785 -0.62002796 0.45664153
000120 a4 de 39 3e 29 e3 bb bd 90 5c d2 bd 2e 77 8f 3e
       0.18151337 -0.09174187 -0.10271561 0.28020614
000130 03 7b 51 3e 77 30 96 3d 18 26 77 bd c6 be 22 bf
       0.20457081 0.07333463 -0.060339063 -0.6357235
000140 2d 2a a2 bc 47 a9 5c 3d 83 d5 0c be fc ce 0d 3d
       -0.019795502 0.053872373 -0.13753323 0.034621224
000150 34 da 96 bc 3b be f6 3e be c2 1c 3e 11 eb 33 bd
       -0.018414594 0.4819201 0.15308663 -0.04392535
000160 2c 92 48 be 2d 63 0e 3f 3d 78 db 3c d3 ae f5 bc
       -0.1958701 0.5562008 0.026790733 -0.02999059
000170 4b f7 d8 bd 20 af 56 3e d3 2d 72 3c d3 05 4c 3e
       -0.105940424 0.20965242 0.014781433 0.19924097
000180 53 2c 6b bd 5c bf 00 be a3 10 8b 3c 83 2e 3d be
       -0.057415318 -0.12572998 0.016975706 -0.18474774
000190 e1 a6 e2 bc 3b b8 43 3b bf 78 f2 3d d6 87 10 3e
       -0.027667465 0.0029864449 0.11839437 0.14114317
0001a0 be 81 08 be 47 b8 71 bd cd 96 70 bd 10 c4 79 be
       -0.13330743 -0.05901363 -0.058737565 -0.24391198
0001b0 10 ac 5b 3e de 45 16 3e 70 c7 34 be 4a 71 ec bd
       0.21452355 0.1467509 -0.17654204 -0.11545046
0001c0 41 33 c7 3e e2 26 ec 3e ec b1 f2 be 9d 8f eb 3b
       0.3890629 0.46123415 -0.4740137 0.007188751
0001d0 81 7e 81 3d e9 9e 0a 3f c4 89 82 3e 6d 0e 84 3c
       0.06322957 0.5414873 0.25495732 0.01612016
0001e0 38 16 f8 3c 24 fa 59 3e 94 78 b8 3d 2e f8 09 3d
       0.030284032 0.21286827 0.090073735 0.03368395
0001f0 e9 a1 5b 3d db 32 fa 3e 3e b6 b1 be 7e 9c 5f 3c
       0.053621206 0.48866925 -0.34709352 0.0136481505
000200 c6 23 a8 3d ba 7a 2a be ff ef 8b 3f 29 cd 31 be
       0.08209948 -0.16648379 1.0932616 -0.17363419
000210 41 2f 45 3e 0a 7e 47 3e 6f 6f 53 bd 04 0e 14 bc
       0.19256307 0.19481674 -0.051619943 -0.009036545
000220 d1 a0 30 be 7d 3b 39 3d 61 ee 98 3e b0 b3 18 3a
       -0.17248847 0.045222748 0.2986937 0.00058251154
000230 12 b5 2b bd 7a aa 52 3d cc 5e 22 be 58 f8 54 3e
       -0.04192073 0.05143211 -0.15856475 0.2079786
000240 74 5a 80 3d 62 9e 80 3e 78 52 7c be 6a 2e 1c bd
       0.062672526 0.25120836 -0.24640834 -0.0381302
000250 37 eb 58 3e d2 4c 1a be 26 d5 62 3e 75 86 61 3e
       0.21183477 -0.15068367 0.22151622 0.22023948
000260 7f 6d 1e be d9 5f 3e be f7 0b 12 3e 3a 08 45 3d
       -0.15471457 -0.1859125 0.14262377 0.04810355
000270 a3 ea 91 3c 51 67 09 be 1b 91 ca be 41 2b 3a be
       0.017812079 -0.13418318 -0.39563832 -0.18180563
000280 2f 6a c8 bb c1 58 3d 3e 50 42 52 3d 31 33 3f 3e
       -0.0061161737 0.18490888 0.05133277 0.18671872
000290 a2 bc 9b 3d 6e f5 d7 bd 9e 8d d4 be cc e8 e3 3c
       0.07604338 -0.10544859 -0.41514295 0.027820967
0002a0 73 8d 09 3d 50 da 99 be 0e 2b 2e be f5 5e 62 be
       0.033582162 -0.30049372 -0.17008612 -0.22106536
0002b0 20 34 8e bc 55 d7 cd 3e 78 76 e3 3c 50 91 a3 3d
       -0.01735884 0.40203348 0.027766451 0.079867005
0002c0 3d 5a 00 3f 0f 65 5d bf 44 0f f9 bd ac 8b 9f bd
       0.5013769 -0.8648233 -0.12161115 -0.07790312
0002d0 9b 7b 6d 3e 5f c0 49 3d bb 66 23 3d 66 96 a3 bd
       0.23191683 0.049255725 0.039892893 -0.079876706
0002e0 76 46 f3 bd c9 df c1 be a5 b1 bc bd 9d ed 8a 3e
       -0.11878674 -0.37866047 -0.092135705 0.2713441
0002f0 46 e9 26 be a6 e5 aa be ef 41 af bd 4a 94 70 be
       -0.16299924 -0.33378333 -0.08557498 -0.23494068
000300 77 21 85 3d 78 12 59 3e 46 f7 be 3c 1d e9 4d 3d
       0.065005235 0.21198452 0.023311269 0.050271142
000310 7f d7 b3 bd 1f 6b 52 3e b0 9d 79 3d 97 86 27 be
       -0.08781337 0.20548676 0.0609414 -0.16359936
000320 6c 71 89 bd c7 83 11 bf 34 2e ac 3e 67 db 40 3e
       -0.06711087 -0.568417 0.33629 0.18833695
000330 27 0d f9 bd 17 1f 19 bf 2a 87 99 3d 76 05 ab 3d
       -0.12160712 -0.59813064 0.074964836 0.08350651
000340 78 46 46 be 7f 6a ac be 97 8a 85 3e 6f 5c 4f bd
       -0.19362819 -0.33675 0.26082298 -0.05062526
000350 64 ee 30 be 5b c1 88 be 5e cc 00 be cf 2f 14 be
       -0.17278439 -0.2671002 -0.1257796 -0.14471363
000360 eb 1d b9 ba 9a ee a0 3e de 5b 52 be ff 36 38 3d
       -0.0014123296 0.3143204 -0.20542857 0.044974323
000370 49 96 52 3d fa 03 85 be 95 85 40 3d e5 4f e9 3d
       0.051412854 -0.25979596 0.047002394 0.11392192
000380 0a 11 9b 3d 98 11 d6 bd b3 a2 df 3c 51 a6 88 3e
       0.07571609 -0.104525745 0.02729926 0.2668939
000390 7a 60 97 3c e8 96 f3 be f6 95 16 3e 6d 04 17 3d
       0.01847862 -0.4757607 0.14705643 0.036869455
0003a0 6c 5f 1f be be 2b 61 bd 00 80 2c 3e ed 30 3a 3e
       -0.15563744 -0.054973356 0.16845703 0.18182726
0003b0 4a c5 2f 3c 33 0e 43 bd 31 b6 c4 be 19 71 5e be
       0.01072819 -0.047620963 -0.3842025 -0.21722831
0003c0 10 ed b7 3e cd 21 a1 be 0f 55 42 3e c4 9d 2a 3c
       0.35923052 -0.314711 0.1897776 0.010413591
0003d0 62 bb 56 3e 54 9b 9c 3e db c0 c3 3d 85 5e 8a 3e
       0.20969918 0.30587256 0.09558269 0.27025238
0003e0 ef 4b 48 be 56 04 a0 3c dc 58 4b be 7f 9d e8 3e
       -0.19560216 0.019533318 -0.19858116 0.4543266
0003f0 5c ac 4d 3d ce ce ea 3e 50 3b 4b 3d c9 94 d7 3e
       0.050213203 0.45860904 0.04961711 0.42105702

conv2.in1.weight f4 [32]
000000 5f 25 ec 3c b1 1e 0a 3e b6 48 a3 3d 44 57 26 3e
       0.028826414 0.1348827 0.07972853 0.16244227
000010 a6 7e 9e 3e c7 b0 97 3d 67 11 38 3e 1a 39 a6 3c
       0.30956 0.074067645 0.17975388 0.0202909
000020 54 b7 49 3e 97 62 0d 3d 50 cc e2 3e 79 e3 9f 3d
       0.1969884 0.03451785 0.44296503 0.07807059
000030 f4 91 1c 3f 86 14 06 3d 87 7b 41 3d b0 93 ba 3e
       0.61160207 0.032734416 0.047236945 0.36440802
000040 43 ec f9 3e ba 08 87 3e 1b 22 41 3e ef 34 66 3d
       0.48813066 0.26373845 0.18860666 0.056202825
000050 1d 5b 66 3f 9c ad 0c 3b 5a b6 ff 3e 48 32 da 37
       0.8998278 0.0021465784 0.4994381 2.601104e-05
000060 5e 52 3e 3d 40 6e 98 3b 6c 8c fa 3c fb 55 ad 3d
       0.04646527 0.0046518147 0.030584536 0.08463665
000070 d3 60 84 3d 8b 96 00 3e 82 54 69 3f b0 8d b2 3e
       0.0646378 0.12557428 0.91144574 0.34873724

conv2.in1.bias f4 [32]
000000 b6 ac 13 3f 7c 7c a0 3e 89 6e d6 3e 9b 0d 35 3f
       0.5768541 0.31344974 0.41881207 0.70723885
000010 8e 4c a2 3e d6 e2 c9 3e 15 e1 4d 3f 0f 55 c4 3e
       0.31699032 0.39430875 0.8042157 0.38346145
000020 40 ef ac 3e 36 dc ef 3e 1a 8a 0f 3f c2 26 03 3f
       0.33776283 0.46847695 0.560701 0.51231015
000030 e9 ae d2 be 73 2b 0c 3f 4c ec 28 3f 36 9b 3e 3e
       -0.4114907 0.547538 0.6598556 0.18613896
000040 28 87 90 3e 47 9c 84 3e f0 5c db 3e d6 ad e9 3e
       0.28228116 0.2590048 0.42844343 0.4564044
000050 c4 c8 a0 3e 7d 94 83 bd 80 8b 57 3b 62 17 c7 bc
       0.31403172 -0.06424806 0.0032889545 -0.024303142
000060 c7 d3 dd 3e ff 12 8a be e1 cc f3 3e 3f 1b 2c 3f
       0.43325636 -0.26967618 0.47617248 0.67229074
000070 7b 68 25 3f 3a 1a a5 3e bd f3 b2 3e 4b 30 14 3f
       0.6461255 0.32246572 0.34951583 0.5788619

conv2.conv2.weight f4 [32, 1, 3, 3]
000000 3b 86 f1 bd d3 29 c3 be cd be 8b bd f2 58 38 3e
       -0.117931806 -0.38117847 -0.06823502 0.1800268
000010 4f a1 e9 3e 15 6e f7 3d 3e 38 5d bd 1d 24 fa bd
       0.4563088 0.12081543 -0.054008715 -0.12213919
000020 ee e5 31 3c 79 20 2c be 6a 8e 52 be 53 d8 78 3e
       0.010858042 -0.16809262 -0.20562139 0.24301271
000030 2c 64 ce bd e0 08 9c 3e 82 53 a5 3d 93 9f 68 3e
       -0.100777 0.3047552 0.080725685 0.22717123
000040 ee f2 d4 3d 16 d8 be be 8a e1 7a bb 20 0e 53 3e
       0.10397898 -0.37274235 -0.0038281404 0.20610857
000050 b1 59 2f be b0 60 9e be 68 7c da 3e 4e 10 e9 bd
       -0.17124058 -0.30933142 0.4267304 -0.11380063
000060 be a9 50 be e3 34 dc 3c 9b d7 09 3e 0f 22 66 3d
       -0.20377252 0.026880687 0.13461153 0.056184825
000070 e6 17 af be b0 68 23 3c 83 62 65 3e 74 6d 99 3e
       -0.3419792 0.00997369 0.2240086 0.2996632
000080 b1 fc 72 be 3a b0 54 be da 1f b7 3d bb 35 f0 3d
       -0.23729207 -0.2077035 0.08941622 0.11728998
000090 59 14 a6 ba 9a 18 66 be 02 ed e8 be 9e 5d 4b be
       -0.0012670859 -0.22470322 -0.45493323 -0.19859931
0000a0 01 d4 7e be 69 3c 80 be 60 f2 6d bd 23 b7 c2 bd
       -0.2488556 -0.2504609 -0.058092475 -0.09507587
0000b0 46 76 31 3c d6 3b 91 be 7b 56 b2 be e9 d7 b5 bd
       0.010831421 -0.28365964 -0.34831604 -0.08879072
0000c0 7d 37 b7 bd d4 b7 e7 be e5 e1 31 3d 75 8a 9b 3e
       -0.089461304 -0.45257437 0.04342832 0.30379072
0000d0 eb 12 0b 3e a8 85 ba 3d 1f de 85 3d ab e1 b1 3e
       0.13581435 0.09107524 0.06536507 0.34742483
0000e0 f3 75 02 3e 58 b3 df 3d c3 e1 11 3f e2 5c 47 3e
       0.12740307 0.10922879 0.5698511 0.19469026
0000f0 ad 9c 1d bc 55 4c 5f 3d 75 55 5a be 99 99 2f be
       -0.009619874 0.054516155 -0.21321662 -0.17148437
000100 24 f7 29 bd 54 b9 b9 3d 1f 4e aa 3e 81 ec b0 3e
       -0.041495457 0.09068552 0.33262727 0.34555438
000110 c6 c4 5d bd a7 d6 05 be b8 24 ae be aa bd a6 bc
       -0.054142736 -0.13070165 -0.3401239 -0.02035411
000120 8e 31 5c ba 90 7a ce bd 98 4e 48 be a2 9d 3c bf
       -0.0008399718 -0.10081971 -0.19561231 -0.7367803
000130 3a 8e c7 bd 30 bd 2b 3e 76 f0 96 be 3f 76 73 bd
       -0.097439244 0.16771388 -0.29480332 -0.05943894
000140 3f f6 b0 3a ce 1d fb 3d d7 e7 f4 bc 4c 46 c7 be
       0.0013501121 0.12261544 -0.029895706 -0.3892082
000150 0b 57 b3 bd 0c 51 bd 3e 81 1e 6d 3e 8a 3c e6 bc
       -0.087568365 0.36975896 0.23156168 -0.02810504
000160 44 c2 78 be ff c6 f6 3d 69 90 c5 be 8d 54 9c be
       -0.24292856 0.12049674 -0.3858674 -0.30533257
000170 1d e8 d3 bc 56 8c 47 3e 99 25 b5 bd f2 cf 59 bd
       -0.025867516 0.19487128 -0.08845062 -0.053176828
000180 7c b4 9a 3e c1 cb 25 3e 6f cb 0a bd d6 0f 2f be
       0.30215824 0.16191007 -0.033885416 -0.17095885
000190 1a 8f bd 3e f9 b8 bf bd 7d 9a 9f 3e 3a 89 00 bd
       0.3702324 -0.093614526 0.31172553 -0.03138087
0001a0 33 ba 8e be 30 44 ff 3d 13 75 35 be c1 4a 1f bd
       -0.27876434 0.124641776 -0.17720442 -0.03888965
0001b0 af d9 81 bd ae a4 77 be 35 c5 00 bd 5e 84 8d 3e
       -0.06340348 -0.24183914 -0.03143807 0.2764005
0001c0 fb c2 57 3d 75 8c 9e 3d 7c ee 8c 3e 28 57 e9 3e
       0.052676182 0.07741634 0.275257 0.45574307
0001d0 43 fd 1c 3e 5d 5a ea 3c e1 2c 15 bf f4 22 80 bd
       0.15330987 0.028607542 -0.58271605 -0.06256667
0001e0 81 e8 0b bd 1a c6 0d bf f6 cb dc bd 06 12 02 3e
       -0.03415728 -0.55380404 -0.1078109 0.12702188
0001f0 8e e7 b8 3d dc 43 f0 3d d1 93 0d 3d e9 87 cb bd
       0.090285406 0.11731693 0.034564797 -0.09938032
000200 71 49 c9 3d 57 07 74 be 16 66 54 be 2b 93 00 bc
       0.09828461 -0.23830925 -0.20742068 -0.007847588
000210 62 8f 85 be 9b f8 04 bf a3 40 a9 be 5b 9e a6 3e
       -0.26085955 -0.5194184 -0.33057126 0.3254269
000220 61 05 af 3d 24 48 80 bc 25 54 18 be 25 30 bf be
       0.08545948 -0.0156594 -0.14875849 -0.3734142
000230 b8 7c 8f be aa 72 4f bb 5b b0 26 be 14 58 cf bd
       -0.2802484 -0.0031654038 -0.16278212 -0.101242214
000240 42 80 04 3e 38 34 37 3e 25 ea a5 3d 3e 67 b6 3e
       0.12939551 0.17891014 0.081013 0.35625643
000250 2e 09 af 3e 79 50 3a 3e 94 5d 3a 3e a7 65 5e 3e
       0.3418669 0.1819476 0.1819976 0.21718465
000260 15 87 04 3e f2 56 86 bd 8b 8d 94 3e 15 01 02 3e
       0.12942155 -0.06559552 0.2901424 0.12695725
000270 ef b7 41 be b1 92 a3 3c 1c 0f 97 3e b3 14 8b be
       -0.18917821 0.019967409 0.29503715 -0.2716423
000280 11 70 8a be ab 8a 5c 3e 3e 17 2c be 9a e7 c2 3d
       -0.27038625 0.21537273 -0.16805741 0.09516831
000290 9d 2d df 3d 34 c1 b9 bd 70 b9 fe 3e 2f ed 36 be
       0.10897372 -0.09070054 0.49750853 -0.17863916
0002a0 5c c4 24 3d ba 2a 6e 3e f6 8f a1 be db c2 93 bc
       0.040226325 0.23258486 -0.31555146 -0.01803725
0002b0 74 d2 ba 3e 4b 50 80 3e fc 4f 04 3e ec 7e ea 3e
       0.36488688 0.2506126 0.12921137 0.4579996
0002c0 11 16 12 3e e2 23 05 3e e0 9f 54 bd c0 bc 51 be
       0.1426623 0.1300197 -0.05191028 -0.20482159
0002d0 2b a8 b9 bd 37 4e 4e be ec 92 c5 bd 05 80 05 be
       -0.090652786 -0.20147024 -0.09647164 -0.13037117
0002e0 cc 12 35 bf f4 84 53 be 89 cb 30 bd ad 56 54 be
       -0.70731807 -0.20656186 -0.043162856 -0.20736189
0002f0 38 10 46 3c 42 13 20 bd 11 55 9a bd 60 f9 8f bc
       0.012088828 -0.039080866 -0.075357564 -0.017574966
000300 a2 c7 a3 bd ee eb 50 bd 28 24 21 bd a9 32 83 bd
       -0.07997061 -0.05100625 -0.039341122 -0.06406147
000310 2e a2 8e bc fd e1 00 be c6 94 1e be 8b d3 44 be
       -0.017411318 -0.12586208 -0.1548644 -0.19221322
000320 85 a6 4a 3d 6b 15 91 3d 26 52 15 3f cc 4d 58 3e
       0.04947521 0.07084163 0.58328474 0.21123427
000330 ab 8f 21 3e 32 6c 91 3e 1a 5d 32 bd 5b c3 0d 3d
       0.15777461 0.2840286 -0.04354582 0.034610134
000340 5d 3e 84 bd 7d e6 82 bd fe 6d 27 3d 35 b9 05 3d
       -0.06457207 -0.063916184 0.04087638 0.03264733
000350 e5 21 85 3c 17 bc d2 3c 0e a9 80 bd 12 e3 67 3c
       0.016251514 0.025724454 -0.062822446 0.014153259
000360 e0 cd f7 bd de cb 09 be e3 f1 47 be 68 c2 12 3d
       -0.120998144 -0.13456675 -0.19525866 0.03582993
000370 07 8f 9d 3e d1 2a e0 3e ca 3c fe 3d 60 80 64 3e
       0.30773184 0.43782666 0.12413938 0.22314596
000380 e0 45 ff 3d 91 d0 0c be 0f 55 5b 3b 59 24 b1 3d
       0.124644995 -0.13751437 0.0033467447 0.08649511
000390 3c 98 c0 bd fc 7a d3 bd 86 7f c2 bd d4 5a 18 bd
       -0.094040364 -0.10326192 -0.094969794 -0.037195995
0003a0 73 80 82 bd b4 03 01 bd bb 20 21 bd ec b4 87 3e
       -0.06372156 -0.031497672 -0.039337855 0.2650522
0003b0 f9 94 1b 3e 29 82 b1 be a2 53 30 3c 60 79 a7 3e
       0.15193547 -0.34669617 0.010762127 0.3270979
0003c0 82 a6 93 bc 90 1d b7 be c4 cb 29 3d 15 aa 76 be
       -0.018023733 -0.35764742 0.04145409 -0.24088319
0003d0 c7 d8 20 bd ea 4e 32 3e ff 2d 7f be 1a e7 f9 3e
       -0.039269235 0.17412916 -0.2491989 0.4880913
0003e0 94 96 0f be 05 44 20 3d e7 99 01 3e 3c 29 14 be
       -0.14022285 0.03912737 0.12656365 -0.14468855
0003f0 d1 4b 5b 3d 15 77 53 be b4 86 17 3e 6e 6b 5d 3d
       0.0535391 -0.20650895 0.14797479 0.05405753

conv2.in2.weight f4 [32]
000000 df 9b 49 3f ff 9d 12 3f d5 79 2d 3f d3 56 37 3f
       0.78753465 0.5727233 0.67764026 0.7161686
000010 2d a2 bd 3e 5b 81 8d 3e 54 49 e1 3e a9 94 43 3f
       0.37037793 0.27637753 0.44001257 0.7639871
000020 31 98 9a 3e 2d cf 41 3f bb 0c 1b 3f 17 4d 31 3f
       0.30194238 0.7570675 0.605663 0.69258255
000030 07 1e 8a 3e 74 ff e1 3e fb ef b0 3e 7e 4a 03 3f
       0.26976034 0.44140208 0.3455809 0.5128554
000040 ac 00 6c 3e ea 0b ef 3e 4c eb 0c 3f e3 2d 05 3f
       0.23047131 0.46688777 0.55046535 0.5202314
000050 e2 c2 17 3f 9a 72 46 3c 5d 52 ae 3e 15 83 2a 3f
       0.5928174 0.012112284 0.34047213 0.66606265
000060 23 4d b0 3e 27 10 54 3d 02 29 09 3f f1 c4 33 3f
       0.3443385 0.051773217 0.535782 0.70222384
000070 22 40 38 3f 99 6b ed 3e 9a 0f e1 3e 43 47 7b 3e
       0.7197286 0.46371153 0.43957216 0.24538903

conv2.in2.bias f4 [32]
000000 ef b2 dc 3a 51 4b a2 3c 9e bb 10 3b f6 4d b7 3b
       0.0016837994 0.019811304 0.0022084485 0.0055940105
000010 30 1d 54 3e c8 40 21 40 2f 3f ec 3f 54 e9 4d bc
       0.20714259 2.519579 1.8456782 -0.012567837
000020 62 a6 4a 3f 3d 45 6c bb 4e dc fe 3e 71 02 e0 bb
       0.7916013 -0.0036052011 0.49777454 -0.0068362285
000030 4b d4 70 3e e9 63 66 3f ce ad b8 3f 6f 42 f5 3e
       0.23518483 0.899962 1.4428041 0.47902247
000040 d2 25 56 3e 8b e5 bb 3f 34 b2 ce 3d f4 52 83 3f
       0.20912865 1.4679426 0.10092583 1.025969
000050 2b 53 d5 be 34 46 aa bd 95 7d 0d 3e 77 5c a7 bc
       -0.41665015 -0.083141714 0.13817437 -0.020429833
000060 c5 5c 47 3f d3 7f c2 3d 30 3c a5 3d 13 b1 02 bb
       0.7787593 0.09497037 0.080681205 -0.001994197
000070 1f ef bb 3c 1d 52 88 3f 8b 64 dd 3e 7e f2 96 3e
       0.02294117 1.0650059 0.4324077 0.29481882

conv2.conv3.weight f4 [64, 32, 1, 1]
000000 cf b1 00 3f a1 14 9b 3d d8 21 92 3d d2 b2 50 3e
       0.50271314 0.07572294 0.071353614 0.20380715
000010 8e 6a b7 bd 38 af bc 3e 96 1b 24 be f2 2b bf 3e
       -0.089558706 0.3685243 -0.16026148 0.37338215
000020 81 d2 1b 3e 20 05 4b 3e 2b 3d 9b 3d db 0b 89 bd
       0.1521702 0.19826174 0.07580026 -0.066917144
000030 1d ff 76 be 7f 0e 54 be 9a 58 06 3f 6d a3 ac 3e
       -0.24120755 -0.20708655 0.52478945 0.33718434
000040 04 67 a7 bd 02 7f 9a be 3b 08 fd bd e5 4c 05 be
       -0.081739455 -0.30175024 -0.123550855 -0.13017614
000050 fb 6a 87 3e 81 d5 33 bd 1e 3a 4c 3e d1 23 0f be
       0.26448807 -0.043904785 0.19944045 -0.13978507
000060 25 34 ff be 30 3b 5d be 34 39 4e be 69 b4 98 be
       -0.4984447 -0.2160461 -0.20139009 -0.29825142
000070 e2 38 7e be 4f 1a a1 bb ae bf 9c be 86 6b ab 3d
       -0.24826387 -0.0049164663 -0.3061499 0.08370118
000080 54 65 05 be 5b 6c 62 3e 2b 76 55 be 97 10 3f be
       -0.13026935 0.22111647 -0.20845859 -0.18658672
000090 e4 a2 03 3f 0d 3a 55 be 8c b5 7b 3e 84 61 dc 3e
       0.51420426 -0.20822926 0.24580973 0.4304315
0000a0 08 d4 28 be 90 a6 28 bd 15 04 e7 be 33 db 3c be
       -0.16487134 -0.04117447 -0.45120302 -0.18442993
0000b0 d8 08 c1 be 0f 0e 2d bd 36 67 5b 3e 85 83 c6 be
       -0.3770206 -0.042249735 0.2142609 -0.38772216
0000c0 3b f2 a8 3e 2a b0 20 bf bc c3 a1 bd 24 b4 94 3d
       0.32997307 -0.62768805 -0.078986615 0.072609216
0000d0 28 31 b2 3e ed 46 d0 bd 29 bf 5d bd 36 50 57 bd
       0.34803128 -0.10169778 -0.054137383 -0.05256673
0000e0 8e 92 6a be 62 af 7a be 47 d0 fc bd b7 90 95 bd
       -0.22907469 -0.24480966 -0.12344413 -0.07302993
0000f0 95 0c 05 be f7 9a 88 be 87 b1 a8 3e c4 f3 33 3e
       -0.12993081 -0.2668073 0.32947943 0.17573458
000100 4b b8 83 3d 37 27 48 be 86 c1 09 3f d9 3a 0d 3e
       0.064316355 -0.1954621 0.5381092 0.1379198
000110 8f cb 25 bd e1 94 c9 3c 29 e6 6c be b0 ee 2f be
       -0.04047733 0.024607124 -0.23134674 -0.17180896
000120 64 e7 04 bf ac a1 12 be 0a 7b d9 3d e5 d2 7b be
       -0.51915574 -0.14319485 0.10619171 -0.24592169
000130 23 16 2d bc 3a e1 4d bc a5 2b 8b bd 4f e9 5f be
       -0.01056436 -0.012565905 -0.06795434 -0.21866344
000140 6a 56 8e be c9 32 10 bf ed ab 71 3e 47 79 ce bd
       -0.27800304 -0.5632749 0.2360074 -0.100817256
000150 06 c4 41 3e 2b 53 8e bd 3b 55 aa bd 31 0c c0 3d
       0.18922433 -0.06949457 -0.08317038 0.09377325
000160 38 bf 42 be d6 53 de bd 02 02 d1 3e 4d 26 60 be
       -0.19018257 -0.10855834 0.40821844 -0.2188961
000170 c2 55 87 3e 64 24 24 bc 8f e0 95 3b e0 83 50 bd
       0.26432616 -0.010018442 0.0045738886 -0.050907016
000180 6f 2f b5 3e de 0c b0 3e db b7 8f be 0e da 86 3d
       0.3538775 0.34384817 -0.28069958 0.065845594
000190 11 26 d8 3d 23 41 00 3f d7 eb 07 be 0b 7f 4c 3f
       0.105541356 0.5009939 -0.1327356 0.7988135
0001a0 b1 3c 8c 3e ad 03 5f 3c c6 e6 c6 3c 7e b3 90 3d
       0.27390054 0.013611716 0.024279963 0.070654854
0001b0 6c 4d b5 3c 5f b1 20 be e6 fb e1 3d ec 69 23 3e
       0.022131644 -0.15692662 0.11034374 0.15958375
0001c0 b9 90 0e 3e 72 b6 5f 3c 63 cf 3b be 3a 38 d5 3e
       0.13922395 0.013654338 -0.1834083 0.4164446
0001d0 bf 2d 80 3e 49 6f cf 3d f8 cc 6d 3e 54 52 9d 3c
       0.25034901 0.10128648 0.2322272 0.019204296
0001e0 59 fc c7 bc 2b 44 0d bd 9f 4c ac 3d de fb 95 3d
       -0.02441232 -0.03448884 0.08413052 0.073234305
0001f0 b2 58 75 be e7 2a fc bd 2b e4 a6 3e db 43 8e bb
       -0.23959616 -0.123128705 0.32595953 -0.004341585
000200 02 55 92 be 49 56 37 3e 5f 93 01 3c 8f dc bd bd
       -0.2858048 0.17904009 0.007908671 -0.09270584
000210 66 34 78 3e d3 a7 8e be 73 7e a3 bd ab ee 57 bd
       0.24238738 -0.27862415 -0.07983103 -0.052717846
000220 22 68 93 3e c1 56 15 be 73 46 b8 be 3e 94 cd 3e
       0.28790385 -0.14583875 -0.35991248 0.40152162
000230 9d fd b0 3d 50 4f a1 3e 6e 3d ca 3e f9 4e 92 3d
       0.08642123 0.31505823 0.39499992 0.07143969
000240 a3 d0 c5 3c f6 92 a5 bd e7 e4 cf 3d a8 f1 cb bd
       0.024147337 -0.08084671 0.101510815 -0.09958202
000250 fc 11 cc be 83 bc 1e 3e 8b b0 0d be 8b 42 bf bc
       -0.3985747 0.15501599 -0.13836877 -0.02334716
000260 95 38 19 be ac 7b ab bd be 1f 7a be 46 c2 cf 3e
       -0.1496299 -0.08373198 -0.24426171 0.40577906
000270 36 fa 31 3d 70 77 08 bc 5b 51 e5 3e 26 71 11 3e
       0.04345151 -0.008329257 0.44788632 0.14203319
000280 7f 51 78 3e b8 e0 0c be b7 94 c5 bd ae f3 db be
       0.24249838 -0.13757598 -0.09647506 -0.4295935
000290 44 06 83 bd c8 d1 01 bf a7 e0 43 be e7 38 21 3f
       -0.063976794 -0.50710726 -0.19128667 0.6297745
0002a0 49 3e 24 3d 3a 8e 05 bf e4 e7 a8 3d 12 f0 47 3d
       0.040098462 -0.52170146 0.082473546 0.048812933
0002b0 85 a4 53 3c 18 d2 a5 3d 75 81 3a 3d 8a 68 6e be
       0.0129176425 0.08096713 0.045533616 -0.23282066
0002c0 3b 9c 6b be 3c 2d 6e be 77 25 7c 3d 1d 56 50 3e
       -0.23008816 -0.23259443 0.061559167 0.2034535
0002d0 5a 20 b8 3d 5e d1 78 3d 59 f2 15 bc c0 15 16 3d
       0.089905456 0.060746543 -0.009152018 0.036641836
0002e0 48 0f 96 3d e7 38 93 be 5f 7f b9 3e bb e6 4f be
       0.073271334 -0.2875435 0.3622999 -0.2030286
0002f0 cc ae c0 be 63 ae 4f bd a5 b3 87 3c 94 7e 95 3c
       -0.3763336 -0.050703418 0.016565153 0.018248834
000300 2a ac 86 3d 2c 60 a5 3c c8 1f 2b be f9 2a 3b be
       0.065758064 0.02018746 -0.16711342 -0.18278112
000310 57 ab f5 3d 25 af 51 ba 87 c4 bf be a1 c3 82 3e
       0.11995571 -0.0007998816 -0.37454626 0.25539878
000320 f1 c4 73 bd 4f 91 9c bd 50 d5 80 3e 33 ae 81 bd
       -0.05951399 -0.07644903 0.25162745 -0.06332054
000330 bd 20 7b 3e bc 14 b5 3e 7e e6 a1 be be 65 61 be
       0.24524207 0.35367382 -0.31621164 -0.22011468
000340 16 9b 02 bf 29 53 89 be a5 40 9c 3d 17 8c 3b 3d
       -0.5101789 -0.2682126 0.076295175 0.045787897
000350 b8 0d 8e be 24 10 55 be 05 ee 03 3e a8 cc d0 3d
       -0.27744842 -0.20806938 0.12883766 0.10195285
000360 5b 64 d7 3e 0d 91 3a be 8c bf 4d 3c 5a 83 b4 bc
       0.42068753 -0.18219395 0.012557875 -0.02203529
000370 f4 3e 2b 3d a3 b6 07 bf 44 d8 f0 be b8 09 c9 be
       0.041808084 -0.53013057 -0.47039998 -0.39265227
000380 46 f1 61 3e a5 44 39 bd 26 2e 0f bf e6 89 44 bd
       0.22064695 -0.04523148 -0.5592979 -0.047983073
000390 42 ae c5 3c 4d d8 38 3f 3a c2 a9 be ab bb 9b 3e
       0.024130944 0.7220505 -0.33155996 0.30416617
0003a0 e0 df 7a 3e e4 df 2f 3c 0c f9 e5 3d 2c 24 bc 3d
       0.24499464 0.010734532 0.112291425 0.09186587
0003b0 b9 3d 66 3d 76 9a 0a 3f 8d 2a 5d 3e 39 f1 5a 3e
       0.056211207 0.5414194 0.21598263 0.21381082
0003c0 53 57 40 3d 8a 54 ce 3d 2d 5d a2 bd 88 a8 07 3e
       0.04695828 0.10074718 -0.07927928 0.13247883
0003d0 13 31 52 bd b5 1e b6 bc d8 01 ad 3e a1 4c 01 3e
       -0.051316332 -0.02223144 0.3379047 0.12626888
0003e0 dc 1f 48 3e 9f e3 ee 3d 43 e1 2a be a3 36 a9 bc
       0.19543403 0.11664509 -0.16687493 -0.020655936
0003f0 ab dc 36 be b8 5b f5 bd c1 f3 96 3c f2 4d 94 be
       -0.17857616 -0.119803846 0.018426778 -0.28965718

conv2.in3.weight f4 [64]
000000 13 ab c7 3e fe 3c b8 3e 39 9b 6e 3f 9b b7 de 3e
       0.38997707 0.35984033 0.932056 0.43499455
000010 fe f6 31 3f 33 72 48 3e 01 cc f8 3e dc 63 12 bf
       0.69517505 0.19574814 0.48593143 -0.57183623
000020 c4 fa c3 3e 63 17 1b 3f 06 65 98 3e c2 a3 6f 3f
       0.38277256 0.6058256 0.29764575 0.9360925
000030 8e 26 dd 3e 73 84 f5 3e 80 3a 87 3e 5b 71 48 3f
       0.43193477 0.47952613 0.2641182 0.78297967
000040 a7 9c 51 3f 81 a7 13 3f 6a 0b d6 3e c2 93 5e 3f
       0.8187966 0.57677466 0.41805583 0.8694421
000050 89 ef 21 3f 5c 09 bb 3e bd f5 88 3f c5 8c 29 3f
       0.63256127 0.36530578 1.0699993 0.6623042
000060 6d e0 1f 3f 97 91 e0 3e f6 98 21 3f 9d d5 9f 3e
       0.6245182 0.43861076 0.63124025 0.31217661
000070 d0 89 cb 3e 54 d0 8c 3e b7 e9 81 3f b9 65 5c 3f
       0.3975358 0.27502692 1.0149449 0.86092716
000080 e0 a7 80 3f 79 a9 24 3e 31 37 6f 3e f6 e3 16 3f
       1.0051231 0.16080274 0.23360898 0.5894159
000090 ed 55 83 3e 7f 34 5a 3f f2 4b 60 3f 0e 07 1d 3f
       0.25651494 0.8523635 0.87615883 0.6133889
0000a0 26 ad d9 3e 1f cd 15 3f fa e1 12 3f 98 81 94 3d
       0.42514914 0.58516115 0.5737606 0.072512805
0000b0 63 fe a8 3e e3 59 67 3f 40 ad 15 3f 9f 17 02 3f
       0.33006582 0.9037153 0.58467484 0.5081729
0000c0 51 62 6c 3f 83 b1 0e 3f e4 21 61 3f 75 f1 52 3f
       0.9233752 0.5573961 0.8794234 0.82399684
0000d0 b8 3c 1b 3f 7e 1b 9f 3e e9 a0 11 3f 5d 26 82 3f
       0.60639524 0.31075662 0.56886154 1.0167958
0000e0 1f f7 86 3f a4 2d 31 3f 16 e6 cd 3e 5f da 00 3f
       1.0544165 0.6921027 0.40214604 0.5033321
0000f0 9c 2e 5b 3e 4f 9f 0e 3f 42 ab f2 3e a8 8e 1c 3f
       0.21404499 0.55711836 0.47396284 0.61155176

conv2.in3.bias f4 [64]
000000 cb f3 0a be d1 66 0b be ee f8 9d 3c e4 c9 9c bd
       -0.13569562 -0.1361344 0.019283738 -0.07655695
000010 ef 61 22 3d ac 49 0b 3d 3a 43 47 bd 36 dd cb bc
       0.039644178 0.034005806 -0.048648097 -0.024885755
000020 16 3a 0b 3c e0 38 6a 3d d0 96 12 be 89 1b 2d 3e
       0.0084977355 0.057183146 -0.14315343 0.16905035
000030 64 84 6d be c5 16 0d 3c a5 48 0e be 06 53 02 be
       -0.23195034 0.008611386 -0.13894899 -0.12726983
000040 3c 12 4f 3d d1 3e 7f be e0 cb 6f 3d c9 cf 2e bd
       0.0505545 -0.24926306 0.05854404 -0.042678628
000050 07 1e 93 be be 34 86 3d 74 f7 16 be 07 b2 06 bd
       -0.28733847 0.065530285 -0.14742833 -0.032884624
000060 96 96 31 3d 71 88 2a 3e b3 a1 40 3e 8a 7c bc 3d
       0.0433565 0.16653611 0.18811683 0.092034414
000070 47 f6 93 bd 84 7f 61 bd d8 b8 dc bd 67 4d 21 be
       -0.07224708 -0.05505325 -0.10777444 -0.15752183
000080 66 ca 15 bc 57 17 f7 bc b2 ea ce bd 78 e1 0f 3a
       -0.009142494 -0.030162496 -0.10103358 0.00054886146
000090 4e d6 78 3d c1 f5 29 3c 6b 1e a7 3d 96 3d c7 3d
       0.060751252 0.010373534 0.08160099 0.097285435
0000a0 d6 a7 87 bd 47 ea 08 3e 41 20 ba 3d e2 cd 28 be
       -0.06623809 0.1337062 0.09088183 -0.16484788
0000b0 74 f3 ea 3d 78 a6 9b 3d 52 36 dd 3c b8 11 d5 3b
       0.11472216 0.07600111 0.027003441 0.0065023564
0000c0 90 ac 8f 3d 40 0b 72 bd 01 ae 34 3d 9b c9 24 bb
       0.070153356 -0.05909276 0.044111256 -0.002514458
0000d0 2d d2 cf bd e2 82 21 3b db 28 06 be 0c 1e 0b be
       -0.1014751 0.0024644663 -0.13101523 -0.1358568
0000e0 5e ab d6 bc 7d a2 ad 3d 88 65 e8 bd a8 47 00 3e
       -0.026204761 0.08478258 -0.113474905 0.12527335
0000f0 e9 b8 ac 3c 81 69 00 bd 3f 74 47 3d 17 c1 d3 bd
       0.021084266 -0.031350616 0.048694845 -0.10339563

conv3.conv1.weight f4 [64, 64, 1, 1]
000000 b4 35 a8 be fc 7d 99 3e ab de 35 be 33 d1 54 3e
       -0.32853472 0.2997893 -0.17760722 0.20782928
000010 90 88 80 be 6f 5e d6 bd 3f 15 6f be 58 b1 8f 3e
       -0.2510419 -0.104672305 -0.23347948 0.2806499
000020 5b a0 45 be 30 c2 94 be bf c4 9e be 38 7b df bd
       -0.19299452 -0.29054403 -0.3100948 -0.10912174
000030 eb 08 df be a1 dd ff 3e 4e 14 47 be b4 97 07 3c
       -0.4356149 0.49973777 -0.1944134 0.008275915
000040 98 34 5b bd 01 59 59 3d 9d d7 c4 b8 a9 be 79 3c
       -0.053516954 0.053063396 -9.3861694e-05 0.015243211
000050 18 42 98 3d b0 70 72 3d 57 96 db be 9b fe 5a 3e
       0.074344814 0.0591895 -0.42888138 0.21386187
000060 f6 2c 0b 3e 26 7e 3a be 0f b5 69 be a9 12 06 3e
       0.1359137 -0.18212184 -0.22822975 0.13093056
000070 b0 19 0e bf 73 c4 d4 3e 76 68 dd 3d 9d 55 7f be
       -0.55507946 0.4155613 0.1081094 -0.24935003
000080 4c 5d 87 bd 91 cd 07 be 97 62 a8 be fa 79 b9 3e
       -0.06609592 -0.13262011 -0.32887718 0.36225873
000090 82 8e b6 3e 1c 11 1d 3e fe df f8 bd 5b 3b ef 3d
       0.356556 0.15338558 -0.12152098 0.11681243
0000a0 d4 30 e6 bd 75 67 22 be bf 9b fb 3c 7e dd 37 3d
       -0.11239782 -0.15859778 0.030713914 0.044888966
0000b0 91 9b a8 3e 87 8e e1 3d cf 04 88 3d 8d b5 3f bf
       0.32931188 0.11013513 0.06641542 -0.748864
0000c0 e0 36 fb 3e 04 b3 b4 3d 69 19 0b be b4 5c dc bc
       0.49065304 0.08823207 -0.13583912 -0.026899673
0000d0 a1 ac be 3b d2 6c 6c be df 57 9a 3c b6 a1 84 be
       0.005818919 -0.23088387 0.018840728 -0.25904626
0000e0 5c d7 96 be 27 cc 92 ba 38 5e d5 bc aa cf bc be
       -0.2946118 -0.0011199758 -0.026045904 -0.36877185
0000f0 aa 9a 03 be 8e e9 b9 3c c5 54 c5 3e ff 42 95 bd
       -0.12851968 0.022694375 0.38541237 -0.07288169
000100 2f 96 88 3d 19 04 e9 bd d4 fe 35 3c 90 ff dd 3b
       0.0666927 -0.11377735 0.011108119 0.00677485
000110 96 f4 76 3d fa 30 3a bc fd ea 04 be a1 bf ac 3d
       0.06029185 -0.011364216 -0.12980266 0.08434988
000120 6a 98 bb 3d c8 ce 01 3c fe d8 ab 3d 26 da 51 3d
       0.0915993 0.007922836 0.08390997 0.051233433
000130 c6 a1 2b 3d d4 4a c1 3d e0 0f 34 bd 4f dd ef 3d
       0.041902326 0.094381005 -0.043960452 0.11712133
000140 75 61 d4 bd d4 2f e6 bd cb 80 e8 bd ef 65 d7 3d
       -0.10370151 -0.11239591 -0.1135269 0.10517489
000150 57 65 ce bc 3d 2b 00 3e 5f ad 5e 3c 80 a5 1d bc
       -0.025194807 0.12516494 0.01359114 -0.009621978
000160 9f 6d 28 bd 29 65 5e bd eb c5 13 3d 4c 38 da bc
       -0.041120168 -0.054295693 0.03607742 -0.026638173
000170 c7 45 55 bd da 90 0a ba 8a 61 14 3d 63 33 fc bd
       -0.052068498 -0.0005285867 0.036225833 -0.12314489
000180 21 de cd 3d a8 ed f5 bc be 75 87 3d 93 fb 8a 3d
       0.10052133 -0.03002055 0.066142544 0.06786265
000190 a5 43 9c 3d 14 02 79 3d 23 f0 ac bd be 15 0c be
       0.0763009 0.060792997 -0.0844424 -0.13680169
0001a0 b0 c6 da 3d ce 8d bd bd 50 bd b6 bd 55 25 01 bd
       0.10682428 -0.09255563 -0.08922827 -0.031529743
0001b0 03 05 8a bd ba 2f 2f ba 1e 92 57 bd 43 87 df bd
       -0.06739237 -0.0006682832 -0.052629583 -0.10914471
0001c0 75 47 ad bb e4 e6 90 bc c8 0c d4 3d b7 98 a7 bb
       -0.0052880594 -0.017688222 0.10354 -0.0051146406
0001d0 db 45 f8 bc 56 2a 9f bd 49 8a 44 bb 7e 1b 30 bd
       -0.030306747 -0.07771747 -0.002998965 -0.04299497
0001e0 75 87 05 3e 72 85 86 bd 0e bf 87 3d fc 92 13 be
       0.13039954 -0.065684214 0.06628238 -0.14411539
0001f0 1f cb 0d 3d 9f 72 4e 3d cf 88 8c 3d fe 37 68 3d
       0.03461754 0.05040228 0.06862032 0.056694023
000200 38 09 28 bd 8f 68 53 b9 bc c6 63 3d be d0 0c be
       -0.041024417 -0.00020161479 0.05560945 -0.13751504
000210 c8 0d 9f be 2b 1b bb 3c 8b 82 b0 3d c2 e4 ac 3e
       -0.31065202 0.022840103 0.08618649 0.33768278
000220 47 30 9b 3e 48 ad 67 bd 52 46 3d 3c 2b 10 ce 3d
       0.3031027 -0.05656174 0.01155241 0.100616775
000230 57 23 05 3e 89 c8 ce 3e 8e fa 2d 3e a8 8c e5 3e
       0.13001762 0.4038737 0.1699011 0.44833875
000240 fd e4 90 3e 91 da 2a 3f 45 f3 1d 3e be d7 7d 3e
       0.28299704 0.66739756 0.15424831 0.2478933
000250 36 8f ca 3e 05 c3 c6 bd 6e 50 6c bb 52 c0 e6 bd
       0.39562386 -0.09705166 -0.0036058682 -0.11267151
000260 28 8e b2 3e 80 97 bb 3e 06 53 64 3e 59 33 01 3e
       0.34874082 0.36639023 0.22297296 0.12617244
000270 72 0f 02 bc 41 6e 3f be 27 b8 63 3e 39 f8 99 be
       -0.007938253 -0.18694402 0.22238217 -0.3007219
000280 66 ce c3 bd e2 f3 b3 be 05 2e 6a be 1e 13 35 bd
       -0.09560852 -0.35147005 -0.22869118 -0.044207685
000290 8c 2e bc 3b 6c 51 41 3d 17 2b 42 be bc 7f 8f be
       0.0057428535 0.04719679 -0.1896175 -0.2802714
0002a0 62 1e 66 b9 b8 6f 78 3e ea b8 96 be 67 46 cd 3e
       -0.00021945828 0.24261367 -0.29437953 0.40092775
0002b0 37 1a d3 be d6 27 fd bd c6 69 2e 3d aa 8a 28 3e
       -0.41230938 -0.12361114 0.042581342 0.16459146
0002c0 11 5d 6a be 64 82 47 be dd 8b 38 be 37 81 7a bd
       -0.22887065 -0.19483334 -0.18022104 -0.061158385
0002d0 fd e8 ff 3e d2 ae 16 be 7a 7f 3a 3d a2 a1 81 be
       0.49982443 -0.14715126 0.045531727 -0.2531863
0002e0 48 8e c9 bd c6 cd e9 3e da 35 91 be 3e e7 8a be
       -0.09841591 0.45664805 -0.28361398 -0.2712955
0002f0 44 bf b4 3d b8 a7 cf 3d 6c 67 ba bb 9c d8 8f 3d
       0.088255435 0.10139412 -0.0056885984 0.07023737
000300 1b 49 94 bd 65 55 eb bd 19 b6 fd bd 48 3c 9f 3d
       -0.07240506 -0.11490897 -0.12388248 0.077751696
000310 1b 53 e9 bd 0c de 3d be 14 02 b7 be 08 ef 88 3e
       -0.11392804 -0.18541735 -0.35743773 0.26744866
000320 f1 f9 d9 3e eb 94 8f be 84 cd 81 3e f4 fe a1 be
       0.42573503 -0.28043303 0.25352108 -0.31639826
000330 49 ff 14 be 11 1b 08 be 70 ed cc 3e 09 64 20 3d
       -0.14550509 -0.13291575 0.400249 0.0391579
000340 d3 6f 66 bd 8a 41 92 be 16 be 13 3e 5e ea 92 3e
       -0.056258988 -0.28565627 0.14427981 0.28694433
000350 d1 ce 90 3e e9 79 37 be 5f a3 b9 3e 92 ef 1c 3e
       0.28282788 -0.17917599 0.36257455 0.15325764
000360 b0 75 2a be 24 d7 67 3e 2b ed bc bd 55 b1 65 be
       -0.16646457 0.22640663 -0.09224924 -0.22430928
000370 87 d2 05 bd 94 1b db 3d 2d 73 08 3f 67 43 ae 3d
       -0.032671478 0.106986195 0.53300744 0.0850895
000380 49 bd d7 3d ff 9c 80 3c 79 0d 28 3d a5 51 61 be
       0.1053415 0.015699862 0.041028474 -0.22003801
000390 e2 3e 88 3d d5 26 0a 3f 37 69 ca be 7e bd e7 bd
       0.06652619 0.539655 -0.39533398 -0.1131544
0003a0 4c dc 4b 3e 34 5c ae be 56 bb 12 be 00 74 ee 3e
       0.19908255 -0.3405472 -0.14329275 0.46572876
0003b0 d3 d6 1f be c5 3f 80 3e d9 ff 1e 3f 8e 5c 93 3d
       -0.15609293 0.25048652 0.6210914 0.07195388
0003c0 78 9c 7a bd 3f 23 5b bd 41 c4 a5 3d b2 56 ae 3e
       -0.061184376 -0.05350041 0.08094073 0.34050518
0003d0 8b 1c 6e 3e 40 a1 2e be 70 b2 a7 bc e0 37 8a 3d
       0.23253076 -0.170537 -0.020470828 0.067489386
0003e0 cc 01 6b bd ba f8 cf bd 14 de 89 3e 91 0e 91 3e
       -0.05737476 -0.10154863 0.26927245 0.28331426
0003f0 e4 f0 30 3d 01 3b 9a 3e d6 50 99 bc 2f 84 ec bd
       0.04319848 0.3012314 -0.018715303 -0.115486495

conv3.in1.weight f4 [64]
000000 f2 08 ff 3d fd ea a3 3e 49 5b 17 bd f5 16 eb 3e
       0.12452878 0.3201522 -0.03695229 0.45915952
000010 f9 37 f8 3e 39 b8 ac 3e 7f 1f 0d 3e 3c 23 a8 3e
       0.48480204 0.337343 0.13781546 0.32839382
000020 30 f7 04 3d 1c ab df 3e e5 b4 f5 3e 6f 4a a5 3d
       0.0324623 0.43685234 0.47989574 0.08070838
000030 79 df f7 3e 89 6f 90 3e 0e 8a 4e 3d ff f2 b0 3e
       0.48412684 0.28210095 0.050424628 0.3456039
000040 18 b9 3a 3f 00 14 3b 3e 7b df d4 3c cb 58 0b 3f
       0.7293868 0.18269348 0.02598547 0.5443236
000050 22 86 59 3d 9a cb 38 3e 83 d8 f5 3c 7c eb fc 3d
       0.053106435 0.18046418 0.030010467 0.123496026
000060 89 8f 59 3f b6 35 60 39 3f 92 43 3f 96 99 88 3e
       0.8498464 0.00021382314 0.7639503 0.26679677
000070 dd 26 0e 3d 54 f8 b3 3f 1c 08 72 3d d8 8a 15 3f
       0.03470503 1.4060159 0.059089765 0.58414984
000080 54 12 a8 ba c5 fb 8d 3e 34 be 90 3e 5b 1b 15 3f
       -0.0012822845 0.27731147 0.28270113 0.58244866
000090 03 7c fb 3e 1d fb 7c 3d 74 15 f1 3c ef 9b 52 3d
       0.4911805 0.061762918 0.029429175 0.05141824
0000a0 5c 95 91 3e be b3 0c 3d 76 a7 52 3f 38 ec 7e 3f
       0.28434265 0.034351103 0.82286775 0.9957919
0000b0 ea 9d 08 3e d1 c6 2b 3d a8 b8 4f 3e 03 5b 1d 3f
       0.1334149 0.041937653 0.20285285 0.61467
0000c0 ee c5 33 3d 67 be 94 3e 76 1d bc 3e 71 af 13 3e
       0.043889932 0.29051515 0.36741227 0.14422394
0000d0 84 80 14 3f a8 33 30 3f 24 91 68 3f c2 e3 ed 3e
       0.580086 0.6882882 0.90846467 0.46462828
0000e0 16 e0 20 3e 40 e3 34 3d 0c 11 8d bb 73 ae 3a 3d
       0.15710482 0.044162035 -0.0043050107 0.045576524
0000f0 ce 50 1a 3d 8a a5 10 3f 1a 4e d4 3e 7d a6 9c 3e
       0.037674718 0.5650259 0.41465837 0.3059577

conv3.in1.bias f4 [64]
000000 a4 33 92 3f 84 41 36 bd 45 99 18 3f 18 2f 8e 3e
       1.142201 -0.044496074 0.5960887 0.27770305
000010 0b b9 23 3f de c3 1d 3f 84 1b 87 3e 5d 6e 42 3f
       0.6395423 0.61626995 0.2638818 0.7594965
000020 53 d1 a7 3e e8 82 6b 3e 56 f7 11 3e 48 51 ec 3d
       0.3277689 0.22999156 0.14254507 0.11538941
000030 34 bc ea 3e bf 83 e9 3e a8 06 1a 3f 50 06 4d 3e
       0.45846713 0.45608327 0.60166407 0.2002194
000040 d9 30 94 3e 17 bf af 3e 0b 7f b0 be 1f dc 70 3e
       0.28943518 0.34325477 -0.34471926 0.2352147
000050 82 8d 1e 3f eb 67 ec 3e e4 27 94 3e d3 9e 13 3f
       0.61934674 0.46173033 0.28936684 0.5766422
000060 c2 9f 57 3e 99 b5 e6 bb 13 3c ca 3d 51 95 30 3e
       0.21057037 -0.007040691 0.098747395 0.1724446
000070 0c 10 25 3f fe 9a ac 3e 2e c7 30 3f f8 fc 80 3e
       0.6447761 0.33712 0.69053924 0.25193
000080 28 11 f5 bc 91 01 ea 3d 6d 8e b6 bc 9c 6e f5 3e
       -0.029915407 0.1142608 -0.02228471 0.4793595
000090 36 f3 d8 3e 97 c0 91 3e 9b 10 08 3f a9 07 63 3f
       0.42373055 0.28467247 0.5315034 0.88683563
0000a0 af 8c 07 3f a4 ca f3 3e ce 07 9c 3e e4 0b 1a 3f
       0.5294904 0.4761554 0.30474705 0.60174394
0000b0 4f 31 c2 3e 16 5e 2c 3f 66 6c 36 3f 01 35 ae 3e
       0.37928244 0.67331064 0.7125915 0.34024814
0000c0 5a e0 f0 3e 83 6a af 3e d4 61 75 3e 8a 03 73 3e
       0.47046167 0.3426095 0.239631 0.23731819
0000d0 65 bd 36 bd 26 01 47 3f 9a 53 e9 3e bd ed 98 3e
       -0.044614214 0.7773613 0.45571595 0.2986888
0000e0 4b 65 20 3f 11 b1 21 3f db 93 90 bd 0e df 21 3f
       0.6265456 0.63160807 -0.07059451 0.6323098
0000f0 0d 53 f7 3e 7a 8c b8 3e f3 a3 32 3e cf 30 29 3e
       0.4830555 0.36044675 0.17445354 0.16522525
